…
                   'pretrained_model_path': 'jepa_iic_PKT_seed-0-latest.pth.tar',
                   'save_path': 'classifiers/jepa-iic-PKT-seed-10-classifier-pretrained-vitb-normalized'},
    'meta': {'device': 'cuda:0'},
    'optimization': {   'epochs': 200,
                        'lr': 0.001,
                        'use_last_n_blocks': 1,
                        'use_normalization': True}}
INFO:root:working on file logs_PKT_full/iic-train-PKT-seed10/jepa-iic-PKT-ep100.pth.tar ...
Directory classifiers/jepa-iic-PKT-seed-10-classifier-pretrained-vitb-normalized-ep100 for saving the classifiers is now present
VisionTransformer(
  (patch_embed): PatchEmbed(
    (proj): Conv2d(3, 768, kernel_size=(15, 15), stride=(15, 15))
  )
  (blocks): ModuleList(
    (0-11): 12 x Block(
      (norm1): LayerNorm((768,), eps=1e-06, elementwise_affine=True)
      (attn): Attention(
        (qkv): Linear(in_features=768, out_features=2304, bias=True)
        (attn_drop): Dropout(p=0.0, inplace=False)
        (proj): Linear(in_features=768, out_features=768, bias=True)
        (proj_drop): Dropout(p=0.0, inplace=False)
      )
      (drop_path): Identity()
      (norm2): LayerNorm((768,), eps=1e-06, elementwise_affine=True)
      (mlp): MLP(
        (fc1): Linear(in_features=768, out_features=3072, bias=True)
        (act): GELU(approximate='none')
        (fc2): Linear(in_features=3072, out_features=768, bias=True)
        (drop): Dropout(p=0.0, inplace=False)
      )
    )
  )
  (norm): LayerNorm((768,), eps=1e-06, elementwise_affine=True)
)
Extracting features and saving them locally..
INFO:root:called-params cls_configs/clsiic.yaml
INFO:root:loaded params....
{   'data': {   'batch_size': 128,
                'crop_size': 150,
                'model_name': 'vit_base',
                'num_classes': 6,
                'patch_size': 15,
                'probe_checkpoints': True,
                'probe_prefix': 'jepa-iic-PKT',
…
Cleaning up intermediate feature (.pt) files
Done


working on file logs_PKT_full/iic-train-PKT-seed15/jepa-iic-PKT-ep300.pth.tar ...
Directory classifiers/jepa-iic-PKT-seed-10-classifier-pretrained-vitb-normalized-ep300 for saving the classifiers is now present
Epoch: 199/200 Train accuracy: 7.21605e-01 Validation accuracy: 7.23000e-01 Loss 1.03393e-02 Time taken: 1.84 seconds 
Epoch: 200/200 Train accuracy: 7.20108e-01 Validation accuracy: 7.20667e-01 Loss 1.03581e-02 Time taken: 1.82 seconds 
Total time taken 0:07:23.631270
Cleaning up intermediate feature (.pt) files
VisionTransformer(
  (patch_embed): PatchEmbed(
    (proj): Conv2d(3, 768, kernel_size=(15, 15), stride=(15, 15))
  )
  (blocks): ModuleList(
    (0-11): 12 x Block(
      (norm1): LayerNorm((768,), eps=1e-06, elementwise_affine=True)
      (attn): Attention(
        (qkv): Linear(in_features=768, out_features=2304, bias=True)
        (attn_drop): Dropout(p=0.0, inplace=False)
        (proj): Linear(in_features=768, out_features=768, bias=True)
        (proj_drop): Dropout(p=0.0, inplace=False)
      )
      (drop_path): Identity()
      (norm2): LayerNorm((768,), eps=1e-06, elementwise_affine=True)
      (mlp): MLP(
        (fc1): Linear(in_features=768, out_features=3072, bias=True)
        (act): GELU(approximate='none')
        (fc2): Linear(in_features=3072, out_features=768, bias=True)
        (drop): Dropout(p=0.0, inplace=False)
      )
    )
  )
  (norm): LayerNorm((768,), eps=1e-06, elementwise_affine=True)
)
Done


working on file logs_PKT_full/iic-train-PKT-seed10/jepa-iic-PKT-ep300.pth.tar ...
Directory classifiers/jepa-iic-PKT-seed-10-classifier-pretrained-vitb-normalized-ep300 for saving the classifiers is now present
VisionTransformer(
  (patch_embed): PatchEmbed(
    (proj): Conv2d(3, 768, kernel_size=(15, 15), stride=(15, 15))
  )
  (blocks): ModuleList(
    (0-11): 12 x Block(
      (norm1): LayerNorm((768,), eps=1e-06, elementwise_affine=True)
      (attn): Attention(
        (qkv): Linear(in_features=768, out_features=2304, bias=True)
        (attn_drop): Dropout(p=0.0, inplace=False)
        (proj): Linear(in_features=768, out_features=768, bias=True)
        (proj_drop): Dropout(p=0.0, inplace=False)
      )
      (drop_path): Identity()
      (norm2): LayerNorm((768,), eps=1e-06, elementwise_affine=True)
      (mlp): MLP(
        (fc1): Linear(in_features=768, out_features=3072, bias=True)
        (act): GELU(approximate='none')
        (fc2): Linear(in_features=3072, out_features=768, bias=True)
        (drop): Dropout(p=0.0, inplace=False)
      )
    )
  )
  (norm): LayerNorm((768,), eps=1e-06, elementwise_affine=True)
)
Extracting features and saving them locally..
Extracting features and saving them locally..
Epoch: 1/200 Train accuracy: 4.17771e-01 Validation accuracy: 5.42333e-01 Loss 1.26693e-02 Time taken: 1.56 seconds 
Epoch: 2/200 Train accuracy: 5.33918e-01 Validation accuracy: 6.20000e-01 Loss 1.18397e-02 Time taken: 1.57 seconds 
Epoch: 3/200 Train accuracy: 5.76671e-01 Validation accuracy: 6.35000e-01 Loss 1.15320e-02 Time taken: 1.57 seconds 
…
