Directory classifiers/jepa-stl-l2-pkt-chunks-seed0-classifier-pretrained-vitb-ep75 for saving the classifiers is now present
Directory classifiers/jepa-stl-l2-pkt-chunks-seed0-classifier-pretrained-vitb-ep75 for saving the classifiers is now present
VisionTransformer(
  (patch_embed): PatchEmbed(
    (proj): Conv2d(3, 768, kernel_size=(15, 15), stride=(15, 15))
  )
  (blocks): ModuleList(
    (0-11): 12 x Block(
      (norm1): LayerNorm((768,), eps=1e-06, elementwise_affine=True)
      (attn): Attention(
        (qkv): Linear(in_features=768, out_features=2304, bias=True)
        (attn_drop): Dropout(p=0.0, inplace=False)
        (proj): Linear(in_features=768, out_features=768, bias=True)
        (proj_drop): Dropout(p=0.0, inplace=False)
      )
      (drop_path): Identity()
      (norm2): LayerNorm((768,), eps=1e-06, elementwise_affine=True)
      (mlp): MLP(
        (fc1): Linear(in_features=768, out_features=3072, bias=True)
        (act): GELU(approximate='none')
        (fc2): Linear(in_features=3072, out_features=768, bias=True)
        (drop): Dropout(p=0.0, inplace=False)
      )
    )
  )
  (norm): LayerNorm((768,), eps=1e-06, elementwise_affine=True)
)
Directory classifiers/jepa-stl-l2-pkt-chunks-seed0-classifier-pretrained-vitb-ep75 for saving the classifiers is now present
VisionTransformer(
  (patch_embed): PatchEmbed(
    (proj): Conv2d(3, 768, kernel_size=(15, 15), stride=(15, 15))
  )
  (blocks): ModuleList(
    (0-11): 12 x Block(
      (norm1): LayerNorm((768,), eps=1e-06, elementwise_affine=True)
      (attn): Attention(
        (qkv): Linear(in_features=768, out_features=2304, bias=True)
        (attn_drop): Dropout(p=0.0, inplace=False)
        (proj): Linear(in_features=768, out_features=768, bias=True)
        (proj_drop): Dropout(p=0.0, inplace=False)
      )
      (drop_path): Identity()
      (norm2): LayerNorm((768,), eps=1e-06, elementwise_affine=True)
      (mlp): MLP(
        (fc1): Linear(in_features=768, out_features=3072, bias=True)
        (act): GELU(approximate='none')
        (fc2): Linear(in_features=3072, out_features=768, bias=True)
        (drop): Dropout(p=0.0, inplace=False)
      )
    )
  )
  (norm): LayerNorm((768,), eps=1e-06, elementwise_affine=True)
)
Directory classifiers/jepa-stl-l2-pkt-chunks-seed0-classifier-pretrained-vitb-ep75 for saving the classifiers is now present
VisionTransformer(
  (patch_embed): PatchEmbed(
    (proj): Conv2d(3, 768, kernel_size=(15, 15), stride=(15, 15))
  )
  (blocks): ModuleList(
    (0-11): 12 x Block(
      (norm1): LayerNorm((768,), eps=1e-06, elementwise_affine=True)
      (attn): Attention(
        (qkv): Linear(in_features=768, out_features=2304, bias=True)
        (attn_drop): Dropout(p=0.0, inplace=False)
        (proj): Linear(in_features=768, out_features=768, bias=True)
        (proj_drop): Dropout(p=0.0, inplace=False)
      )
      (drop_path): Identity()
      (norm2): LayerNorm((768,), eps=1e-06, elementwise_affine=True)
      (mlp): MLP(
        (fc1): Linear(in_features=768, out_features=3072, bias=True)
        (act): GELU(approximate='none')
        (fc2): Linear(in_features=3072, out_features=768, bias=True)
        (drop): Dropout(p=0.0, inplace=False)
      )
    )
  )
  (norm): LayerNorm((768,), eps=1e-06, elementwise_affine=True)
)
Extracting features and saving them locally..
Epoch: 1/200 Train accuracy: 9.31000e-01 Validation accuracy: 9.99875e-01 Loss 1.39530e-02 Time taken: 0.57 seconds 
Epoch: 2/200 Train accuracy: 9.99800e-01 Validation accuracy: 1.00000e+00 Loss 1.18572e-02 Time taken: 0.68 seconds 
Epoch: 3/200 Train accuracy: 1.00000e+00 Validation accuracy: 1.00000e+00 Loss 1.17736e-02 Time taken: 0.60 seconds 
…
Epoch: 198/200 Train accuracy: 1.00000e+00 Validation accuracy: 1.00000e+00 Loss 1.16892e-02 Time taken: 0.61 seconds 
Epoch: 199/200 Train accuracy: 1.00000e+00 Validation accuracy: 1.00000e+00 Loss 1.16892e-02 Time taken: 0.60 seconds 
Epoch: 200/200 Train accuracy: 1.00000e+00 Validation accuracy: 1.00000e+00 Loss 1.16892e-02 Time taken: 0.61 seconds 
Total time taken 0:02:06.983587
Cleaning up intermediate feature (.pt) files
Done


Directory classifiers/jepa-stl-l2-seed0-classifier-pretrained-vitb-ep75 for saving the classifiers is now present
VisionTransformer(
  (patch_embed): PatchEmbed(
    (proj): Conv2d(3, 768, kernel_size=(15, 15), stride=(15, 15))
  )
  (blocks): ModuleList(
    (0-11): 12 x Block(
      (norm1): LayerNorm((768,), eps=1e-06, elementwise_affine=True)
      (attn): Attention(
        (qkv): Linear(in_features=768, out_features=2304, bias=True)
        (attn_drop): Dropout(p=0.0, inplace=False)
        (proj): Linear(in_features=768, out_features=768, bias=True)
        (proj_drop): Dropout(p=0.0, inplace=False)
      )
      (drop_path): Identity()
      (norm2): LayerNorm((768,), eps=1e-06, elementwise_affine=True)
      (mlp): MLP(
        (fc1): Linear(in_features=768, out_features=3072, bias=True)
        (act): GELU(approximate='none')
        (fc2): Linear(in_features=3072, out_features=768, bias=True)
        (drop): Dropout(p=0.0, inplace=False)
      )
    )
  )
  (norm): LayerNorm((768,), eps=1e-06, elementwise_affine=True)
)
Extracting features and saving them locally..
Epoch: 1/200 Train accuracy: 1.80600e-01 Validation accuracy: 2.60500e-01 Loss 1.81834e-02 Time taken: 0.56 seconds 
Epoch: 2/200 Train accuracy: 2.99600e-01 Validation accuracy: 3.49000e-01 Loss 1.76489e-02 Time taken: 0.54 seconds 
Epoch: 3/200 Train accuracy: 3.80400e-01 Validation accuracy: 4.11125e-01 Loss 1.72638e-02 Time taken: 0.54 seconds 
…
