Directory classifiers/jepa-stl-l2-seed2-classifier-pretrained-vitb-ep10 for saving the classifiers is now present
VisionTransformer(
  (patch_embed): PatchEmbed(
    (proj): Conv2d(3, 768, kernel_size=(15, 15), stride=(15, 15))
  )
  (blocks): ModuleList(
    (0-11): 12 x Block(
      (norm1): LayerNorm((768,), eps=1e-06, elementwise_affine=True)
      (attn): Attention(
        (qkv): Linear(in_features=768, out_features=2304, bias=True)
        (attn_drop): Dropout(p=0.0, inplace=False)
        (proj): Linear(in_features=768, out_features=768, bias=True)
        (proj_drop): Dropout(p=0.0, inplace=False)
      )
      (drop_path): Identity()
      (norm2): LayerNorm((768,), eps=1e-06, elementwise_affine=True)
      (mlp): MLP(
        (fc1): Linear(in_features=768, out_features=3072, bias=True)
        (act): GELU(approximate='none')
        (fc2): Linear(in_features=3072, out_features=768, bias=True)
        (drop): Dropout(p=0.0, inplace=False)
      )
    )
  )
  (norm): LayerNorm((768,), eps=1e-06, elementwise_affine=True)
)
Extracting features and saving them locally..
Epoch: 1/200 Train accuracy: 1.89400e-01 Validation accuracy: 2.72500e-01 Loss 1.81105e-02 Time taken: 0.62 seconds 
Epoch: 2/200 Train accuracy: 2.84600e-01 Validation accuracy: 3.02750e-01 Loss 1.75614e-02 Time taken: 0.45 seconds 
Epoch: 3/200 Train accuracy: 3.25400e-01 Validation accuracy: 3.28750e-01 Loss 1.72982e-02 Time taken: 0.67 seconds 
…
Epoch: 198/200 Train accuracy: 6.21200e-01 Validation accuracy: 5.68750e-01 Loss 1.50359e-02 Time taken: 0.53 seconds 
Epoch: 199/200 Train accuracy: 6.20400e-01 Validation accuracy: 5.67875e-01 Loss 1.49444e-02 Time taken: 0.53 seconds 
Epoch: 200/200 Train accuracy: 6.22000e-01 Validation accuracy: 5.68000e-01 Loss 1.49531e-02 Time taken: 0.54 seconds 
Total time taken 0:01:52.720638
Cleaning up intermediate feature (.pt) files
Done


Directory classifiers/jepa-stl-l2-seed2-classifier-pretrained-vitb-ep10 for saving the classifiers is now present
VisionTransformer(
  (patch_embed): PatchEmbed(
    (proj): Conv2d(3, 768, kernel_size=(15, 15), stride=(15, 15))
  )
  (blocks): ModuleList(
    (0-11): 12 x Block(
      (norm1): LayerNorm((768,), eps=1e-06, elementwise_affine=True)
      (attn): Attention(
        (qkv): Linear(in_features=768, out_features=2304, bias=True)
        (attn_drop): Dropout(p=0.0, inplace=False)
        (proj): Linear(in_features=768, out_features=768, bias=True)
        (proj_drop): Dropout(p=0.0, inplace=False)
      )
      (drop_path): Identity()
      (norm2): LayerNorm((768,), eps=1e-06, elementwise_affine=True)
      (mlp): MLP(
        (fc1): Linear(in_features=768, out_features=3072, bias=True)
        (act): GELU(approximate='none')
        (fc2): Linear(in_features=3072, out_features=768, bias=True)
        (drop): Dropout(p=0.0, inplace=False)
      )
    )
  )
  (norm): LayerNorm((768,), eps=1e-06, elementwise_affine=True)
)
Directory classifiers/jepa-stl-l2-seed2-classifier-pretrained-vitb-ep10 for saving the classifiers is now present
VisionTransformer(
  (patch_embed): PatchEmbed(
    (proj): Conv2d(3, 768, kernel_size=(15, 15), stride=(15, 15))
  )
  (blocks): ModuleList(
    (0-11): 12 x Block(
      (norm1): LayerNorm((768,), eps=1e-06, elementwise_affine=True)
      (attn): Attention(
        (qkv): Linear(in_features=768, out_features=2304, bias=True)
        (attn_drop): Dropout(p=0.0, inplace=False)
        (proj): Linear(in_features=768, out_features=768, bias=True)
        (proj_drop): Dropout(p=0.0, inplace=False)
      )
      (drop_path): Identity()
      (norm2): LayerNorm((768,), eps=1e-06, elementwise_affine=True)
      (mlp): MLP(
        (fc1): Linear(in_features=768, out_features=3072, bias=True)
        (act): GELU(approximate='none')
        (fc2): Linear(in_features=3072, out_features=768, bias=True)
        (drop): Dropout(p=0.0, inplace=False)
      )
    )
  )
  (norm): LayerNorm((768,), eps=1e-06, elementwise_affine=True)
)
Extracting features and saving them locally..
Epoch: 1/200 Train accuracy: 1.81000e-01 Validation accuracy: 2.55625e-01 Loss 1.81809e-02 Time taken: 0.62 seconds 
Epoch: 2/200 Train accuracy: 2.92000e-01 Validation accuracy: 3.02875e-01 Loss 1.75567e-02 Time taken: 0.54 seconds 
Epoch: 3/200 Train accuracy: 3.18400e-01 Validation accuracy: 3.12875e-01 Loss 1.73389e-02 Time taken: 0.54 seconds 
…
