Directory logs_IN100/in100-vitb-l2-ep600-seed0-PLATEU/classifiers for saving the classifiers is now present
VisionTransformer(
  (patch_embed): PatchEmbed(
    (proj): Conv2d(3, 768, kernel_size=(16, 16), stride=(16, 16))
  )
  (blocks): ModuleList(
    (0-11): 12 x Block(
      (norm1): LayerNorm((768,), eps=1e-06, elementwise_affine=True)
      (attn): Attention(
        (qkv): Linear(in_features=768, out_features=2304, bias=True)
        (attn_drop): Dropout(p=0.0, inplace=False)
        (proj): Linear(in_features=768, out_features=768, bias=True)
        (proj_drop): Dropout(p=0.0, inplace=False)
      )
      (drop_path): Identity()
      (norm2): LayerNorm((768,), eps=1e-06, elementwise_affine=True)
      (mlp): MLP(
        (fc1): Linear(in_features=768, out_features=3072, bias=True)
        (act): GELU(approximate='none')
        (fc2): Linear(in_features=3072, out_features=768, bias=True)
        (drop): Dropout(p=0.0, inplace=False)
      )
    )
  )
  (norm): LayerNorm((768,), eps=1e-06, elementwise_affine=True)
)
Directory logs_IN100/in100-vitb-l2-ep600-seed0-PLATEU/classifiers for saving the classifiers is now present
VisionTransformer(
  (patch_embed): PatchEmbed(
    (proj): Conv2d(3, 768, kernel_size=(14, 14), stride=(14, 14))
  )
  (blocks): ModuleList(
    (0-11): 12 x Block(
      (norm1): LayerNorm((768,), eps=1e-06, elementwise_affine=True)
      (attn): Attention(
        (qkv): Linear(in_features=768, out_features=2304, bias=True)
        (attn_drop): Dropout(p=0.0, inplace=False)
        (proj): Linear(in_features=768, out_features=768, bias=True)
        (proj_drop): Dropout(p=0.0, inplace=False)
      )
      (drop_path): Identity()
      (norm2): LayerNorm((768,), eps=1e-06, elementwise_affine=True)
      (mlp): MLP(
        (fc1): Linear(in_features=768, out_features=3072, bias=True)
        (act): GELU(approximate='none')
        (fc2): Linear(in_features=3072, out_features=768, bias=True)
        (drop): Dropout(p=0.0, inplace=False)
      )
    )
  )
  (norm): LayerNorm((768,), eps=1e-06, elementwise_affine=True)
)
Extracting features and saving them in memory..
Extracting features...
Epoch: 1/200 Train accuracy: 4.59723e-01 Validation accuracy: 4.74800e-01 Training loss 1.74503e-02 Validation loss 1.66813e-02 Time taken: 1.71 seconds 
Epoch: 2/200 Train accuracy: 5.72877e-01 Validation accuracy: 5.11800e-01 Training loss 1.26945e-02 Validation loss 1.54405e-02 Time taken: 1.79 seconds 
…
Epoch: 199/200 Train accuracy: 7.17692e-01 Validation accuracy: 5.59800e-01 Training loss 7.75800e-03 Validation loss 1.37957e-02 Time taken: 1.64 seconds 
Epoch: 200/200 Train accuracy: 7.16677e-01 Validation accuracy: 5.67600e-01 Training loss 7.75653e-03 Validation loss 1.37806e-02 Time taken: 1.64 seconds 
Total time taken 0:05:44.406982
Cleaning up intermediate feature (.pt) files
Done


working on file logs_IN100/in100-vitb-l2-ep600-seed0-PLATEU/jepa_in100-ep600.pth.tar ...
Directory logs_IN100/in100-vitb-l2-ep600-seed0-PLATEU/classifiers for saving the classifiers is now present
VisionTransformer(
  (patch_embed): PatchEmbed(
    (proj): Conv2d(3, 768, kernel_size=(14, 14), stride=(14, 14))
  )
  (blocks): ModuleList(
    (0-11): 12 x Block(
      (norm1): LayerNorm((768,), eps=1e-06, elementwise_affine=True)
      (attn): Attention(
        (qkv): Linear(in_features=768, out_features=2304, bias=True)
        (attn_drop): Dropout(p=0.0, inplace=False)
        (proj): Linear(in_features=768, out_features=768, bias=True)
        (proj_drop): Dropout(p=0.0, inplace=False)
      )
      (drop_path): Identity()
      (norm2): LayerNorm((768,), eps=1e-06, elementwise_affine=True)
      (mlp): MLP(
        (fc1): Linear(in_features=768, out_features=3072, bias=True)
        (act): GELU(approximate='none')
        (fc2): Linear(in_features=3072, out_features=768, bias=True)
        (drop): Dropout(p=0.0, inplace=False)
      )
    )
  )
  (norm): LayerNorm((768,), eps=1e-06, elementwise_affine=True)
)
Extracting features and saving them in memory..
Extracting features...
Epoch: 1/200 Train accuracy: 3.67046e-01 Validation accuracy: 3.90400e-01 Training loss 2.01640e-02 Validation loss 1.92295e-02 Time taken: 1.70 seconds 
Epoch: 2/200 Train accuracy: 4.83185e-01 Validation accuracy: 4.28200e-01 Training loss 1.56194e-02 Validation loss 1.78958e-02 Time taken: 1.61 seconds 
…
