Directory logs_IN100/in100-vitb16-l2-ep300/classifiers for saving the classifiers is now present
Directory logs_IN100/in100-vitb16-l2-ep300/classifiers for saving the classifiers is now present
VisionTransformer(
  (patch_embed): PatchEmbed(
    (proj): Conv2d(3, 768, kernel_size=(16, 16), stride=(16, 16))
  )
  (blocks): ModuleList(
    (0-11): 12 x Block(
      (norm1): LayerNorm((768,), eps=1e-06, elementwise_affine=True)
      (attn): Attention(
        (qkv): Linear(in_features=768, out_features=2304, bias=True)
        (attn_drop): Dropout(p=0.0, inplace=False)
        (proj): Linear(in_features=768, out_features=768, bias=True)
        (proj_drop): Dropout(p=0.0, inplace=False)
      )
      (drop_path): Identity()
      (norm2): LayerNorm((768,), eps=1e-06, elementwise_affine=True)
      (mlp): MLP(
        (fc1): Linear(in_features=768, out_features=3072, bias=True)
        (act): GELU(approximate='none')
        (fc2): Linear(in_features=3072, out_features=768, bias=True)
        (drop): Dropout(p=0.0, inplace=False)
      )
    )
  )
  (norm): LayerNorm((768,), eps=1e-06, elementwise_affine=True)
)
VisionTransformer(
  (patch_embed): PatchEmbed(
    (proj): Conv2d(3, 768, kernel_size=(16, 16), stride=(16, 16))
  )
  (blocks): ModuleList(
    (0-11): 12 x Block(
      (norm1): LayerNorm((768,), eps=1e-06, elementwise_affine=True)
      (attn): Attention(
        (qkv): Linear(in_features=768, out_features=2304, bias=True)
        (attn_drop): Dropout(p=0.0, inplace=False)
        (proj): Linear(in_features=768, out_features=768, bias=True)
        (proj_drop): Dropout(p=0.0, inplace=False)
      )
      (drop_path): Identity()
      (norm2): LayerNorm((768,), eps=1e-06, elementwise_affine=True)
      (mlp): MLP(
        (fc1): Linear(in_features=768, out_features=3072, bias=True)
        (act): GELU(approximate='none')
        (fc2): Linear(in_features=3072, out_features=768, bias=True)
        (drop): Dropout(p=0.0, inplace=False)
      )
    )
  )
  (norm): LayerNorm((768,), eps=1e-06, elementwise_affine=True)
)
Extracting features and saving them in memory..
Extracting features...
Extracting features and saving them in memory..
Extracting features...
Done extracting features...
 Creating datasets
Created datasets...
 Creating data loaders
Done with data loaders
Commencing training
Done extracting features...
 Creating datasets
Created datasets...
 Creating data loaders
…
Total time taken 0:02:49.205815
Cleaning up intermediate feature (.pt) files
Done


working on file logs_IN100/in100-vitb16-l2-ep300/jepa-in100-ep300.pth.tar ...
Directory logs_IN100/in100-vitb16-l2-ep300/classifiers for saving the classifiers is now present
Epoch: 175/200 Train accuracy: 6.59460e-01 Validation accuracy: 5.19200e-01 Training loss 9.30696e-03 Validation loss 1.54844e-02 Time taken: 0.86 seconds 
Epoch: 176/200 Train accuracy: 6.57320e-01 Validation accuracy: 5.18500e-01 Training loss 9.30383e-03 Validation loss 1.56165e-02 Time taken: 0.77 seconds 
VisionTransformer(
  (patch_embed): PatchEmbed(
    (proj): Conv2d(3, 768, kernel_size=(16, 16), stride=(16, 16))
  )
  (blocks): ModuleList(
    (0-11): 12 x Block(
      (norm1): LayerNorm((768,), eps=1e-06, elementwise_affine=True)
      (attn): Attention(
        (qkv): Linear(in_features=768, out_features=2304, bias=True)
        (attn_drop): Dropout(p=0.0, inplace=False)
        (proj): Linear(in_features=768, out_features=768, bias=True)
        (proj_drop): Dropout(p=0.0, inplace=False)
      )
      (drop_path): Identity()
      (norm2): LayerNorm((768,), eps=1e-06, elementwise_affine=True)
      (mlp): MLP(
        (fc1): Linear(in_features=768, out_features=3072, bias=True)
        (act): GELU(approximate='none')
        (fc2): Linear(in_features=3072, out_features=768, bias=True)
        (drop): Dropout(p=0.0, inplace=False)
      )
    )
  )
  (norm): LayerNorm((768,), eps=1e-06, elementwise_affine=True)
)
Epoch: 177/200 Train accuracy: 6.57700e-01 Validation accuracy: 5.26600e-01 Training loss 9.28744e-03 Validation loss 1.52306e-02 Time taken: 0.78 seconds 
Epoch: 178/200 Train accuracy: 6.61100e-01 Validation accuracy: 5.20600e-01 Training loss 9.26677e-03 Validation loss 1.53435e-02 Time taken: 0.78 seconds 
Epoch: 179/200 Train accuracy: 6.62100e-01 Validation accuracy: 5.22600e-01 Training loss 9.21171e-03 Validation loss 1.53222e-02 Time taken: 0.88 seconds 
…
