Directory logs_STL/stl-l2-pkt-chunks-seed3/classifiers for saving the classifiers is now present
VisionTransformer(
  (patch_embed): PatchEmbed(
    (proj): Conv2d(3, 768, kernel_size=(15, 15), stride=(15, 15))
  )
  (blocks): ModuleList(
    (0-11): 12 x Block(
      (norm1): LayerNorm((768,), eps=1e-06, elementwise_affine=True)
      (attn): Attention(
        (qkv): Linear(in_features=768, out_features=2304, bias=True)
        (attn_drop): Dropout(p=0.0, inplace=False)
        (proj): Linear(in_features=768, out_features=768, bias=True)
        (proj_drop): Dropout(p=0.0, inplace=False)
      )
      (drop_path): Identity()
      (norm2): LayerNorm((768,), eps=1e-06, elementwise_affine=True)
      (mlp): MLP(
        (fc1): Linear(in_features=768, out_features=3072, bias=True)
        (act): GELU(approximate='none')
        (fc2): Linear(in_features=3072, out_features=768, bias=True)
        (drop): Dropout(p=0.0, inplace=False)
      )
    )
  )
  (norm): LayerNorm((768,), eps=1e-06, elementwise_affine=True)
)
Extracting features and saving them locally..
Epoch: 1/200 Train accuracy: 1.61600e-01 Validation accuracy: 2.23500e-01 Training loss 1.81817e-02 Validation loss 1.75590e-02Time taken: 0.58 seconds 
Epoch: 2/200 Train accuracy: 2.96800e-01 Validation accuracy: 3.56125e-01 Training loss 1.76072e-02 Validation loss 1.70746e-02Time taken: 0.55 seconds 
Epoch: 3/200 Train accuracy: 3.92200e-01 Validation accuracy: 4.07000e-01 Training loss 1.71504e-02 Validation loss 1.67480e-02Time taken: 0.55 seconds 
…
Epoch: 199/200 Train accuracy: 6.07400e-01 Validation accuracy: 5.62000e-01 Training loss 1.49870e-02 Validation loss 1.50340e-02Time taken: 0.69 seconds 
Epoch: 200/200 Train accuracy: 6.08600e-01 Validation accuracy: 5.62625e-01 Training loss 1.50075e-02 Validation loss 1.50321e-02Time taken: 0.79 seconds 
Total time taken 0:02:04.404864
Cleaning up intermediate feature (.pt) files
Done


working on file logs_STL/stl-l2-seed3/jepa-stl-l2-seed3-ep100.pth.tar ...
Directory logs_STL/stl-l2-pkt-chunks-seed3/classifiers for saving the classifiers is now present
VisionTransformer(
  (patch_embed): PatchEmbed(
    (proj): Conv2d(3, 768, kernel_size=(15, 15), stride=(15, 15))
  )
  (blocks): ModuleList(
    (0-11): 12 x Block(
      (norm1): LayerNorm((768,), eps=1e-06, elementwise_affine=True)
      (attn): Attention(
        (qkv): Linear(in_features=768, out_features=2304, bias=True)
        (attn_drop): Dropout(p=0.0, inplace=False)
        (proj): Linear(in_features=768, out_features=768, bias=True)
        (proj_drop): Dropout(p=0.0, inplace=False)
      )
      (drop_path): Identity()
      (norm2): LayerNorm((768,), eps=1e-06, elementwise_affine=True)
      (mlp): MLP(
        (fc1): Linear(in_features=768, out_features=3072, bias=True)
        (act): GELU(approximate='none')
        (fc2): Linear(in_features=3072, out_features=768, bias=True)
        (drop): Dropout(p=0.0, inplace=False)
      )
    )
  )
  (norm): LayerNorm((768,), eps=1e-06, elementwise_affine=True)
)
Extracting features and saving them in memory..
Extracting features...
Directory logs_STL/stl-l2-pkt-chunks-seed3/classifiers for saving the classifiers is now present
VisionTransformer(
  (patch_embed): PatchEmbed(
    (proj): Conv2d(3, 768, kernel_size=(15, 15), stride=(15, 15))
  )
  (blocks): ModuleList(
    (0-11): 12 x Block(
      (norm1): LayerNorm((768,), eps=1e-06, elementwise_affine=True)
      (attn): Attention(
        (qkv): Linear(in_features=768, out_features=2304, bias=True)
        (attn_drop): Dropout(p=0.0, inplace=False)
        (proj): Linear(in_features=768, out_features=768, bias=True)
        (proj_drop): Dropout(p=0.0, inplace=False)
      )
      (drop_path): Identity()
      (norm2): LayerNorm((768,), eps=1e-06, elementwise_affine=True)
      (mlp): MLP(
        (fc1): Linear(in_features=768, out_features=3072, bias=True)
        (act): GELU(approximate='none')
        (fc2): Linear(in_features=3072, out_features=768, bias=True)
        (drop): Dropout(p=0.0, inplace=False)
      )
    )
  )
  (norm): LayerNorm((768,), eps=1e-06, elementwise_affine=True)
)
Extracting features and saving them in memory..
Extracting features...
Epoch: 1/200 Train accuracy: 2.23000e-01 Validation accuracy: 3.22875e-01 Training loss 1.81976e-02 Validation loss 1.54046e-02 Time taken: 0.05 seconds 
Epoch: 2/200 Train accuracy: 3.99000e-01 Validation accuracy: 4.39625e-01 Training loss 1.45048e-02 Validation loss 1.32919e-02 Time taken: 0.05 seconds 
…
