Directory logs_IN100/in100-vitb-l2-pkt-chunks-ep600-seed0/classifiers for saving the classifiers is now present
VisionTransformer(
  (patch_embed): PatchEmbed(
    (proj): Conv2d(3, 768, kernel_size=(14, 14), stride=(14, 14))
  )
  (blocks): ModuleList(
    (0-11): 12 x Block(
      (norm1): LayerNorm((768,), eps=1e-06, elementwise_affine=True)
      (attn): Attention(
        (qkv): Linear(in_features=768, out_features=2304, bias=True)
        (attn_drop): Dropout(p=0.0, inplace=False)
        (proj): Linear(in_features=768, out_features=768, bias=True)
        (proj_drop): Dropout(p=0.0, inplace=False)
      )
      (drop_path): Identity()
      (norm2): LayerNorm((768,), eps=1e-06, elementwise_affine=True)
      (mlp): MLP(
        (fc1): Linear(in_features=768, out_features=3072, bias=True)
        (act): GELU(approximate='none')
        (fc2): Linear(in_features=3072, out_features=768, bias=True)
        (drop): Dropout(p=0.0, inplace=False)
      )
    )
  )
  (norm): LayerNorm((768,), eps=1e-06, elementwise_affine=True)
)
Extracting features and saving them locally..
Extracting features...
Epoch: 1/200 Train accuracy: 4.07469e-01 Validation accuracy: 4.51400e-01 Training loss 3.31280e-02 Validation loss 3.36507e-02 Time taken: 61.72 seconds 
Epoch: 2/200 Train accuracy: 5.34477e-01 Validation accuracy: 4.88600e-01 Training loss 3.21110e-02 Validation loss 3.33392e-02 Time taken: 46.32 seconds 
…
Epoch: 199/200 Train accuracy: 7.69792e-01 Validation accuracy: 5.67200e-01 Training loss 3.02594e-02 Validation loss 3.24883e-02 Time taken: 43.29 seconds 
Epoch: 200/200 Train accuracy: 7.69762e-01 Validation accuracy: 5.67200e-01 Training loss 3.02590e-02 Validation loss 3.24819e-02 Time taken: 39.09 seconds 
Total time taken 2:33:29.018165
Cleaning up intermediate feature (.pt) files
Done


working on file logs_IN100/in100-vitb-l2-pkt-chunks-ep600-seed0/jepa_in100-ep600.pth.tar ...
Directory logs_IN100/in100-vitb-l2-pkt-chunks-ep600-seed0/classifiers for saving the classifiers is now present
VisionTransformer(
  (patch_embed): PatchEmbed(
    (proj): Conv2d(3, 768, kernel_size=(14, 14), stride=(14, 14))
  )
  (blocks): ModuleList(
    (0-11): 12 x Block(
      (norm1): LayerNorm((768,), eps=1e-06, elementwise_affine=True)
      (attn): Attention(
        (qkv): Linear(in_features=768, out_features=2304, bias=True)
        (attn_drop): Dropout(p=0.0, inplace=False)
        (proj): Linear(in_features=768, out_features=768, bias=True)
        (proj_drop): Dropout(p=0.0, inplace=False)
      )
      (drop_path): Identity()
      (norm2): LayerNorm((768,), eps=1e-06, elementwise_affine=True)
      (mlp): MLP(
        (fc1): Linear(in_features=768, out_features=3072, bias=True)
        (act): GELU(approximate='none')
        (fc2): Linear(in_features=3072, out_features=768, bias=True)
        (drop): Dropout(p=0.0, inplace=False)
      )
    )
  )
  (norm): LayerNorm((768,), eps=1e-06, elementwise_affine=True)
)
Extracting features and saving them locally..
Extracting features...
Directory logs_IN100/in100-vitb-l2-pkt-chunks-ep600-seed0/classifiers for saving the classifiers is now present
VisionTransformer(
  (patch_embed): PatchEmbed(
    (proj): Conv2d(3, 768, kernel_size=(14, 14), stride=(14, 14))
  )
  (blocks): ModuleList(
    (0-11): 12 x Block(
      (norm1): LayerNorm((768,), eps=1e-06, elementwise_affine=True)
      (attn): Attention(
        (qkv): Linear(in_features=768, out_features=2304, bias=True)
        (attn_drop): Dropout(p=0.0, inplace=False)
        (proj): Linear(in_features=768, out_features=768, bias=True)
        (proj_drop): Dropout(p=0.0, inplace=False)
      )
      (drop_path): Identity()
      (norm2): LayerNorm((768,), eps=1e-06, elementwise_affine=True)
      (mlp): MLP(
        (fc1): Linear(in_features=768, out_features=3072, bias=True)
        (act): GELU(approximate='none')
        (fc2): Linear(in_features=3072, out_features=768, bias=True)
        (drop): Dropout(p=0.0, inplace=False)
      )
    )
  )
  (norm): LayerNorm((768,), eps=1e-06, elementwise_affine=True)
)
Extracting features and saving them locally..
Extracting features...
Epoch: 1/200 Train accuracy: 3.30585e-01 Validation accuracy: 3.60600e-01 Training loss 3.37666e-02 Validation loss 3.42744e-02 Time taken: 39.54 seconds 
Epoch: 2/200 Train accuracy: 4.33138e-01 Validation accuracy: 3.90600e-01 Training loss 3.29298e-02 Validation loss 3.40062e-02 Time taken: 41.41 seconds 
…
