VisionTransformer(
  (patch_embed): PatchEmbed(
    (proj): Conv2d(3, 768, kernel_size=(15, 15), stride=(15, 15))
  )
  (blocks): ModuleList(
    (0-11): 12 x Block(
      (norm1): LayerNorm((768,), eps=1e-06, elementwise_affine=True)
      (attn): Attention(
        (qkv): Linear(in_features=768, out_features=2304, bias=True)
        (attn_drop): Dropout(p=0.0, inplace=False)
        (proj): Linear(in_features=768, out_features=768, bias=True)
        (proj_drop): Dropout(p=0.0, inplace=False)
      )
      (drop_path): Identity()
      (norm2): LayerNorm((768,), eps=1e-06, elementwise_affine=True)
      (mlp): MLP(
        (fc1): Linear(in_features=768, out_features=3072, bias=True)
        (act): GELU(approximate='none')
        (fc2): Linear(in_features=3072, out_features=768, bias=True)
        (drop): Dropout(p=0.0, inplace=False)
      )
    )
  )
  (norm): LayerNorm((768,), eps=1e-06, elementwise_affine=True)
)
making imagenet data transforms
data-path datasets/intel-image-classification/train/
Initialized ImageNet
ImageNet dataset created
ImageNet unsupervised data loader created
Using AdamW
Epoch 1
[1,     0] loss: 5.503775e+04 masks: 33.0 12.0 [wd: 4.00e-02] [lr: 2.00e-04] [mem: 6.19e+03] cross mse: 6.004021e+04 loss itself: 8.662589e-02 (1082.5 ms)
[1,     0] grad_stats: [1.43e+04 6.72e+03] (6.40e+03, 2.10e+04)
…
[167,    58] loss: 2.528469e+05 masks: 22.3 17.1 [wd: 1.30e-01] [lr: 8.25e-04] [mem: 7.69e+03] cross mse: 2.528437e+05 loss itself: 3.094264e+00 (444.6 ms)
[167,    58] grad_stats: [3.20e-04 1.33e-04] (6.97e-05, 1.45e-03)
avg. loss 2.52964102e+05
avg. cross sim matrix mse 2.52961109e+05 , avg. loss itself 3.037308e+00
time taken for epoch 0:01:21.081840
Epoch 168
[168,     0] loss: 2.533272e+05 masks: 26.0 16.0 [wd: 1.30e-01] [lr: 8.24e-04] [mem: 7.69e+03] cross mse: 2.522317e+05 loss itself: 3.191558e+00 (468.6 ms)
[168,     0] grad_stats: [1.78e-04 8.55e-05] (4.58e-05, 9.55e-04)
VisionTransformer(
  (patch_embed): PatchEmbed(
    (proj): Conv2d(3, 768, kernel_size=(15, 15), stride=(15, 15))
  )
  (blocks): ModuleList(
    (0-11): 12 x Block(
      (norm1): LayerNorm((768,), eps=1e-06, elementwise_affine=True)
      (attn): Attention(
        (qkv): Linear(in_features=768, out_features=2304, bias=True)
        (attn_drop): Dropout(p=0.0, inplace=False)
        (proj): Linear(in_features=768, out_features=768, bias=True)
        (proj_drop): Dropout(p=0.0, inplace=False)
      )
      (drop_path): Identity()
      (norm2): LayerNorm((768,), eps=1e-06, elementwise_affine=True)
      (mlp): MLP(
        (fc1): Linear(in_features=768, out_features=3072, bias=True)
        (act): GELU(approximate='none')
        (fc2): Linear(in_features=3072, out_features=768, bias=True)
        (drop): Dropout(p=0.0, inplace=False)
      )
    )
  )
  (norm): LayerNorm((768,), eps=1e-06, elementwise_affine=True)
)
making imagenet data transforms
data-path datasets/intel-image-classification/train/
Initialized ImageNet
ImageNet dataset created
ImageNet unsupervised data loader created
Using AdamW
loaded pretrained encoder from epoch 167 with msg: <All keys matched successfully>
loaded pretrained encoder from epoch 167 with msg: <All keys matched successfully>
loaded pretrained encoder from epoch 167 with msg: <All keys matched successfully>
loaded optimizers from epoch 167
read-path: logs_PKT_cross/iic-train-l2-pkt-cross-seed43/jepa-iic-l2-pkt-cross-seed43-latest.pth.tar
Epoch 168
VisionTransformer(
  (patch_embed): PatchEmbed(
    (proj): Conv2d(3, 768, kernel_size=(15, 15), stride=(15, 15))
  )
  (blocks): ModuleList(
    (0-11): 12 x Block(
      (norm1): LayerNorm((768,), eps=1e-06, elementwise_affine=True)
      (attn): Attention(
        (qkv): Linear(in_features=768, out_features=2304, bias=True)
        (attn_drop): Dropout(p=0.0, inplace=False)
        (proj): Linear(in_features=768, out_features=768, bias=True)
        (proj_drop): Dropout(p=0.0, inplace=False)
      )
      (drop_path): Identity()
      (norm2): LayerNorm((768,), eps=1e-06, elementwise_affine=True)
      (mlp): MLP(
        (fc1): Linear(in_features=768, out_features=3072, bias=True)
        (act): GELU(approximate='none')
        (fc2): Linear(in_features=3072, out_features=768, bias=True)
        (drop): Dropout(p=0.0, inplace=False)
      )
    )
  )
  (norm): LayerNorm((768,), eps=1e-06, elementwise_affine=True)
)
making imagenet data transforms
data-path datasets/intel-image-classification/train/
Initialized ImageNet
ImageNet dataset created
ImageNet unsupervised data loader created
Using AdamW
loaded pretrained encoder from epoch 167 with msg: <All keys matched successfully>
loaded pretrained encoder from epoch 167 with msg: <All keys matched successfully>
loaded pretrained encoder from epoch 167 with msg: <All keys matched successfully>
loaded optimizers from epoch 167
read-path: logs_PKT_cross/iic-train-l2-pkt-cross-seed43/jepa-iic-l2-pkt-cross-seed43-latest.pth.tar
Epoch 168
VisionTransformer(
  (patch_embed): PatchEmbed(
    (proj): Conv2d(3, 768, kernel_size=(15, 15), stride=(15, 15))
  )
  (blocks): ModuleList(
    (0-11): 12 x Block(
      (norm1): LayerNorm((768,), eps=1e-06, elementwise_affine=True)
      (attn): Attention(
        (qkv): Linear(in_features=768, out_features=2304, bias=True)
        (attn_drop): Dropout(p=0.0, inplace=False)
        (proj): Linear(in_features=768, out_features=768, bias=True)
        (proj_drop): Dropout(p=0.0, inplace=False)
      )
      (drop_path): Identity()
      (norm2): LayerNorm((768,), eps=1e-06, elementwise_affine=True)
      (mlp): MLP(
        (fc1): Linear(in_features=768, out_features=3072, bias=True)
        (act): GELU(approximate='none')
        (fc2): Linear(in_features=3072, out_features=768, bias=True)
        (drop): Dropout(p=0.0, inplace=False)
      )
    )
  )
  (norm): LayerNorm((768,), eps=1e-06, elementwise_affine=True)
)
making imagenet data transforms
data-path datasets/intel-image-classification/train/
Initialized ImageNet
ImageNet dataset created
ImageNet unsupervised data loader created
Using AdamW
loaded pretrained encoder from epoch 167 with msg: <All keys matched successfully>
loaded pretrained encoder from epoch 167 with msg: <All keys matched successfully>
loaded pretrained encoder from epoch 167 with msg: <All keys matched successfully>
…
